models/advanced/classification/pytorch_with_labs.pt (torch, 109184 bytes, 20 tensors)

layer1.0.weight f4 [128, 96]
00000000: 0bbe 5bbd be0d 7d3b 4844 9b3d 52d3 303d
00000010: 3cac 193d d439 41bd 38d2 13bd 44f7 693c
00000020: af04 b23c 259b 61bd 9602 c13d 879d 26bc
00000030: 5bb4 90be 652b 303d 74f5 803d 8ed7 343c
00000040: 019a b93d 1e09 243c 298d 963d ed79 a33b
00000050: 5b1c 8e3d 0907 e83d 51a7 8bbd 1d07 30bd
00000060: 3033 2ebc f334 debc cb74 ff3d 38fd d53c
00000070: 8698 cebc 74d5 f73c e2e6 4c3d 2ef7 e5bd
00000080: 4e36 ad39 3aa8 953d 06ea d23b c7b9 d43d
00000090: 6dc3 51bd 517e 583e 8b35 7bbd 0f5f 51bc
000000a0: 4327 0d3e 11db ae3d 96ad f03b d322 e43d
000000b0: fdca 423d 568b 19be fe35 2c3d bc3f cd3d
000000c0: f597 de3c 8336 883d 9385 dbbc 3e14 4bbc
000000d0: 422d eabb 31f0 ccbc 5406 93bd 22f5 05bd
000000e0: ed43 dfbb 5807 ba3c 25ba eebd 914c 14bd
000000f0: 23e4 c43b cb00 f0bc d728 bcbd 15e1 103d
00000100: 6440 d43d 3d06 3e3e 25a7 303e 764d df3e
00000110: e165 73bd fc59 91bc 370e 9ebd 0b85 b2bd
00000120: 5ea6 21be 5935 453d 0c85 b23d bae2 1ebe
00000130: 9a65 b03c 7d0e 9c3d 4d59 8abd 310d 5b3c
00000140: 66e9 073d e09f 323a cd52 c9bc 20e1 bb3b
00000150: 7951 9fbc daac 65be c62a 04bd a33a 6c3d
00000160: 8594 64be 150c cebd c995 fe3c e448 f83d
00000170: 5164 e0bd 223d 933c 3e38 983d 64cf 1c3e
00000180: 25ef a1bd e889 bc3b a970 ef3d bd15 a4bc
00000190: 333a 5bbe dc04 23bd 23ce acbb 5ff0 b23d
000001a0: 4204 21bd 56cb 6d3d 2dc6 413c f0cf 283c
000001b0: 15f9 38be e7b6 053d b0ef 12bc 97cc d43c
000001c0: da8e ffbd a873 26bc 234c 1bbc 9ac8 40bd
000001d0: 78cf 943d 82a7 7f3d 5dc2 bb3d ab2d 543d
000001e0: 953f 143d 0fac 293d 9588 7e3e b371 a33b
000001f0: 462f 2ebe a0aa 9a3d 1f77 b7bc 2087 16bd
00000200: 0070 a53c d123 693e 3efb 553d 96ea 81bd
00000210: e872 ec3c df63 13bd fe30 44bd 271c 303d
00000220: 158b 22bd 2f70 9f3b 4637 a13d 9a85 ac3c
00000230: 04b1 a6bc 1914 18bd fa63 b23c 8555 54bd
00000240: e946 453d cfaa 6b3c 6672 b73d a454 7f3d
00000250: 5238 dd3c 4dd8 613d 8960 d1bd efb2 fd3d
00000260: 99cd 8d3d fff5 f43c c415 25be b70e cabd
00000270: de9c 653d 26dc c23d f256 903d 5086 51bd
00000280: 8cae d4bd 2c88 203d 5e8f bc3d 14d3 e4bd
00000290: f105 cb3c 332f f3bc ffa0 34bb 6569 e9bd
000002a0: 7b62 e03c 4584 39bd 8a75 a6bd 3c16 a3bd
000002b0: 0fa0 0aba 8bee 923d 4f88 10be ef26 f7bd
000002c0: b2c0 d03c 0e61 95bd dc3c 723d ee84 473d
000002d0: 154f 48bd 1dc5 a8be d1bc edbd 4728 cd3d
000002e0: 10de bebe c513 71bd 9eec b93d 6375 8cbe
000002f0: a563 a6bc eb15 693c bece 993d 063a 9c3d
00000300: a67a 41be 95f5 bb3b 4ba8 fcbd 92ab 9f3d
00000310: 5def a03d 0cdc 56bd 751d 463d 426a bcbc
00000320: 4ad7 6d3d 1877 4ebd 8a5d 433d fe6b 50be
00000330: 38b9 2ebe 4e8e 8ebd 1650 6e3d 8bc7 94bd
00000340: 930c e03d 80c9 2b3d ea39 b23c 56ae ab3d
00000350: 9da9 603c d874 c239 6964 fbbd e508 a2bd
00000360: f011 803e b621 8ebd e7e4 3a3e 6272 74bd
00000370: c69e d33d ebd3 8e3d f354 553d 3e65 b1bc
00000380: 5ccb 73bd bd50 1e3d d44a bcb9 7363 26bd
00000390: 6feb 27bd a9f2 db3d bb12 a3bd 31b8 243d
000003a0: 7c7f b23d 45dc 1a3d 0354 ebbd 4816 08be
000003b0: 13d6 4c3c 9df4 f2bd 6a19 d63d 6406 e1bc
000003c0: ab0d edbd dcf5 1b3d c418 6abc 75c6 bcbd
000003d0: 3c29 b3bd 1b61 c0bc 40b7 b4bd 69b5 a1bc
000003e0: ad13 b13a 0fa8 b53c 04b3 9bbd 78e5 9eba
000003f0: 347d ffbd da1c 0fbd effc aabd 67b8 463d
-0.053648036 0.0038612927 0.07581383 0.04317028 0.03751777 -0.04717429 -0.036089152 0.014280144
0.021730749 -0.055079598 0.09424321 -0.010169393 -0.282626 0.043010134 0.062968165 0.01103772
0.09062577 0.010011939 0.07351143 0.0049889 0.06939002 0.11329467 -0.068190224 -0.042975534
-0.010632321 -0.027124858 0.12473448 0.02612172 -0.025219213 0.03025315 0.050024875 -0.112287864
0.00033037591 0.07307477 0.006436589 0.10386997 -0.051211763 0.21141936 -0.06133036 -0.012779011
0.13784508 0.08537877 0.007344912 0.11139455 0.047556866 -0.14994559 0.04204368 0.10021922
0.027172068 0.06651022 -0.026797092 -0.012394963 -0.0071465084 -0.025016876 -0.07178941 -0.03270448
-0.0068135173 0.02270858 -0.11656598 -0.036205832 0.0060086413 -0.029297253 -0.09187477 0.035370905
0.10363844 0.18557067 0.1725126 0.43613786 -0.05942333 -0.017743103 -0.07717555 -0.08716782
-0.1578612 0.04814658 0.08716783 -0.15516177 0.021532822 0.07619951 -0.06755314 0.013369844
0.03318157 0.00068139844 -0.024575615 0.005733624 -0.019448029 -0.22429219 -0.032267354 0.057673108
-0.2232228 -0.10060898 0.031077283 0.12123278 -0.10956634 0.017973486 0.07432602 0.15313488
-0.07906941 0.0057537444 0.1169141 -0.020029897 -0.2140892 -0.039799556 -0.005273597 0.087372534
-0.0393107 0.058055244 0.011827034 0.010303482 -0.18063767 0.032645132 -0.008968279 0.025976462
-0.12478419 -0.010159411 -0.009478602 -0.04706631 0.07266134 0.062415607 0.09167931 0.051801365
0.03619345 0.041423853 0.2485679 0.0049879192 -0.17010221 0.075520754 -0.022395669 -0.03674996
0.020195007 0.22767569 0.052241556 -0.06343572 0.028863385 -0.035983916 -0.047898285 0.0429956
-0.03968342 0.0048656682 0.07871871 0.0210598 -0.02034808 -0.03712854 0.021776188 -0.05183937
0.04816333 0.014383986 0.08957367 0.06233658 0.027004395 0.05513792 -0.10223491 0.123876445
0.0692398 0.029902456 -0.16121584 -0.09866088 0.056057803 0.09514646 0.070478335 -0.05115348
-0.10384855 0.039192364 0.092070326 -0.111730725 0.024783107 -0.029685592 -0.0027561781 -0.113970555
0.02739071 -0.045292158 -0.081278875 -0.07963225 -0.0005288133 0.07174405 -0.14114498 -0.12067973
0.02548251 -0.07293902 0.05914007 0.048710756 -0.048903544 -0.32962885 -0.116082795 0.10017448
-0.37278795 -0.058856744 0.09078334 -0.2743331 -0.020311186 0.014226417 0.07510136 0.076282546
-0.18894443 0.005736063 -0.12336787 0.07796396 0.07858155 -0.052455947 0.048367936 -0.022999886
0.058066644 -0.050406545 0.047696628 -0.20353696 -0.17062843 -0.06960736 0.058181845 -0.07264622
0.10939898 0.041940212 0.021756131 0.08382861 0.013712314 0.0003708962 -0.12275011 -0.07911853
0.25013685 -0.069400236 0.18251382 -0.059679396 0.10333018 0.06974014 0.052082967 -0.021654721
-0.05952011 0.038651217 -0.00035913906 -0.040622186 -0.04099601 0.10739643 -0.07962557 0.04021472
0.08715722 0.03780772 -0.11490633 -0.1328975 0.012502211 -0.118630625 0.10454066 -0.027468868
-0.115748726 0.038076267 -0.014288131 -0.0921754 -0.08748099 -0.023483803 -0.08824015 -0.019739823
0.0013509892 0.022174863 -0.07602504 -0.001212283 -0.124750525 -0.034939624 -0.083490245 0.048515704

layer1.0.bias f4 [128]
00000000: c3eb be3c 38f9 d43d 2aa2 93bd 3a65 a5bd
00000010: 71df a73c 61cc e53c 264b b4bd 74e5 b53d
00000020: 55b5 173d e28d bf3c c510 babd d348 853d
00000030: b517 59bd 9d56 293d 5e3c 8ebc 87d8 c3bd
00000040: 68da 463d c42c 5a3d f292 99bb 4093 a83d
00000050: 3624 c73d 8944 c7bd a5a8 42bc a662 0f3b
00000060: 1dc8 0ebd dd65 bcbd 41c4 b43d 23af ccbc
00000070: 2d90 9b3d 904c a4bd 763c 823d 026d 01bd
00000080: ee18 b0bc 1df0 bbbd 7a2e c93c 0538 6fbc
00000090: ef5b a7bd ab18 00bd b990 cc3c f02e eb3c
000000a0: 3a73 85bd 8bec 1ebd f126 943d e908 d83d
000000b0: ff4c ae3d df4c cfbd e97b 34bd 6324 c93c
000000c0: ad76 923b 5ae9 693c bff3 8fbd d346 d43d
000000d0: 8a17 95bd 288a 64bd bb7d 943d 330d 05bd
000000e0: a7a5 143c 8ada 94bd 16d7 9ebc b5cd 0abd
000000f0: 7910 ff3c 721d 94bd 94c1 78bd f35c f73c
00000100: 8563 983c f5ae 8a3c 69b3 1d3c 29bd 4f3c
00000110: 56f0 66bc 9442 183d 12a6 4fbd 9382 fb3c
00000120: 992c 56bd 2cf9 6a3d e278 9b3d 477f 9fbd
00000130: fdbf a73c 94f7 193d 0007 613c 1076 533d
00000140: bdbf bdb9 d94c b2bd 9dfa a33d 1376 993c
00000150: f03d 9f3d 51b2 8fbd a164 a43d d460 aa3d
00000160: 1758 11bd 2680 d9bd 3a47 76bd a3c2 6b3b
00000170: 6820 d2bd dad2 4dbd e147 cfbc 2548 bcbd
00000180: f6ba 8bbd e8e4 44bd 1fce f33c f487 0d3d
00000190: 356c 923d 6ce3 82bd 395c 893d 1081 9fbd
000001a0: 608b 0ebc a50a 06bd bf24 713d d9f7 113d
000001b0: 0600 c4bd 1f3b a23d d1b9 4b3c 6eb3 8c3c
000001c0: ffaf 983d f37e 10bd 09b7 bd3c 7d2a 7dbd
000001d0: fa00 c4bd d3c6 5abd 7d5a 9dbd fd80 88bd
000001e0: d069 bbbd 4fb4 953d fec6 d73a 716e 66bd
000001f0: c8c1 b33d 5c1d 563c 8bf6 873d 4e04 debc
0.02330578 0.10399097 -0.07208665 -0.08075948 0.020492287 0.028051557 -0.08803396 0.08881655
0.037038166 0.023383085 -0.0908523 0.06508031 -0.053001124 0.041342366 -0.01736277 -0.09562784
0.048548132 0.053265348 -0.0046867067 0.08231211 0.097237036 -0.09729869 -0.011881028 0.0021878867
-0.03485881 -0.091991164 0.08826495 -0.024985855 0.07595859 -0.08022416 0.06359188 -0.0315981
-0.021496262 -0.09176657 0.024558295 -0.014600758 -0.08171832 -0.031273525 0.024971353 0.028708905
-0.06516118 -0.038799804 0.0723399 0.105485745 0.085107796 -0.10122084 -0.044063482 0.024553483
0.0044697137 0.014276827 -0.07028913 0.10365071 -0.0727988 -0.05579582 0.07250544 -0.03248329
0.009072698 -0.072682455 -0.01938967 -0.033887584 0.031135784 -0.07232179 -0.060731485 0.030195689
0.018602142 0.01692913 0.009625294 0.012679377 -0.0140953865 0.03717287 -0.050695486 0.030701911
-0.052288625 0.057366535 0.07591416 -0.07787948 0.02047729 0.037589625 0.013734579 0.051626265
-0.00036191745 -0.08706064 0.08006785 0.01873306 0.077754855 -0.07016433 0.08027006 0.0831925
-0.0354844 -0.106201455 -0.06012652 0.0035974167 -0.10260087 -0.05024991 -0.02530283 -0.09193448
-0.06822769 -0.048069865 0.029761372 0.034553483 0.07149545 -0.063910335 0.06707043 -0.077882886
-0.008700222 -0.032724995 0.058872934 0.035636757 -0.09570317 0.07921433 0.012434439 0.017175402
0.074554436 -0.03527732 0.023158567 -0.061808098 -0.09570499 -0.05341227 -0.07683275 -0.066652276
-0.091510415 0.07309782 0.0016462503 -0.05625767 0.08777195 0.013068523 0.06638821 -0.027101662

layer1.1.weight f4 [128]
00000000: 7441 823f 56fd 883f c146 863f 848c 8a3f
00000010: 7736 7f3f 083c 823f efe3 823f 0d20 703f
00000020: 9d9d 603f c956 703f 466f 823f 2c05 713f
00000030: a7c8 813f 8d80 703f 8ecd 803f c4b5 7b3f
00000040: d388 883f eb97 873f ba32 713f 2ecb 813f
00000050: f2e5 7a3f cced 833f 0e4d 673f 427c 7d3f
00000060: 6737 773f abc7 833f 5ccd 833f fab3 743f
00000070: 62f7 833f 47e9 803f a305 823f 68df 713f
00000080: 4ae1 703f fe69 653f e283 7c3f 14d1 7d3f
00000090: 86ba 823f 168a 6b3f 62bd 823f 7b90 753f
000000a0: 5a3e 883f 2093 703f 28cd 7e3f 1d95 723f
000000b0: 51bb 783f 54ba 663f a3bf 593f 0b24 873f
000000c0: ff7c 7a3f ce67 7c3f 5314 8c3f d6a7 803f
000000d0: 2c2a 773f e364 693f 1264 783f fe16 673f
000000e0: c27d 7c3f 4e7f 863f a977 683f 2a88 7e3f
000000f0: e801 823f 2f01 633f f2c1 7e3f ff88 7d3f
00000100: 895e 763f 4df4 863f 4fcd 6a3f 99e3 843f
00000110: 30ff 663f d86d 7a3f 1bc2 6f3f 605a 633f
00000120: 5b0f 6e3f 4f60 7d3f 627d 7c3f 8cb2 7c3f
00000130: 43d3 663f 93a6 783f 77da 823f 5581 7f3f
00000140: 2dad 803f 5e6a 823f 2db9 813f 143f 793f
00000150: 35ef 823f 80a2 653f 5ab6 8b3f 56f4 7e3f
00000160: a5e9 7d3f a08f 833f fe3f 753f b6a7 733f
00000170: d40f 843f 40a5 813f 4302 7c3f c3d3 743f
00000180: 9cd3 783f 4fac 6b3f 8ad2 7b3f 948d 823f
00000190: ee6f 6f3f 58c3 843f 71b1 783f 8a0c 8d3f
000001a0: c441 723f 600f 863f 1c66 803f a864 823f
000001b0: 3034 703f ce6c 713f 5c91 713f 3dcf 7a3f
000001c0: 4bc3 643f af30 853f a479 6c3f 83d8 823f
000001d0: 7e19 7f3f d851 7e3f 4332 6e3f 9010 803f
000001e0: ed09 7c3f 4fe8 7b3f 3465 773f 6c10 873f
000001f0: 7434 873f c6b2 593f 0bf2 7d3f 7bc3 723f
1.0176225 1.0702312 1.0490342 1.0824132 0.9969248 1.017457 1.022581 0.93798906
0.877405 0.93882424 1.0190208 0.94148517 1.0139359 0.9394615 1.006273 0.9832423
1.0666755 1.0593237 0.9421803 1.014013 0.9800712 1.0306945 0.9035195 0.9901773
0.9656891 1.0295309 1.0297046 0.9558712 1.030987 1.007119 1.015797 0.94481516
0.94093764 0.89614856 0.9863874 0.9914715 1.0213172 0.9200758 1.0214045 0.95923585
1.0644028 0.93974495 0.99531794 0.9475878 0.9716082 0.90128064 0.8505804 1.0557874
0.9784698 0.98595893 1.0943702 1.005122 0.96548724 0.91169566 0.97027695 0.9026946
0.9862939 1.05076 0.90807587 0.9942652 1.0156832 0.8867368 0.9951469 0.99037164
0.96238 1.0543305 0.91719526 1.0381957 0.90233135 0.9782386 0.93655556 0.88809776
0.9299218 0.9897508 0.9862882 0.9870994 0.9016611 0.9712917 1.022292 0.9980672
1.0052849 1.0188711 1.0134636 0.97361875 1.022925 0.8970108 1.0915024 0.9959158
0.9918464 1.0278206 0.9580077 0.9517778 1.031733 1.0128555 0.9844095 0.9563562
0.9719789 0.920598 0.9836813 1.0199456 0.93530166 1.0372114 0.97145754 1.1019452
0.946316 1.0473442 1.0031161 1.0186968 0.9382963 0.9430665 0.94362426 0.9797247
0.89360493 1.0405482 0.9237311 1.0222324 0.99648273 0.99343634 0.93045443 1.0005054
0.98452646 0.9840135 0.966388 1.0551887 1.0562882 0.8503841 0.99197453 0.9482953

layer1.1.bias f4 [128]
00000000: 9c5e d2bc cd3c 5bbe a74a 24be 21eb dbbd
00000010: 9d8a 77be 64b9 77be 6799 e7bd 2c18 b4bd
00000020: 3acb 04be d08d 82be 83ac bfbd e019 39be
00000030: b9b3 19be 9954 3cbe 8276 4dbe 3df1 edbd
00000040: e2f3 4fbe 84dd e8bd db9d 3fbe cfd8 48be
00000050: 7b82 61be 564a 69be fa1e 63be 4d9e 81be
00000060: 000c 0cbe b9bf 4dbd fe8b 82bd c3b7 b7be
00000070: 2f87 a3bd da82 04be e210 49be 8597 21be
00000080: cb63 43be 814f d2bd 428c 36be 4b0f 85be
00000090: 92a3 89be 18a2 cbbd 4253 2bbe 7140 29be
000000a0: c291 98bd e4df 43be 3731 c7be 6d8b 67be
000000b0: 8b88 1fbe 5dca 49be 1bf5 5abd b4d9 d7bd
000000c0: c943 87be 9059 babc a5f4 3ebe ab1c 6ebe
000000d0: 85ef 3ebe d5bf 11be 4faf 76be 0b74 6dbe
000000e0: 2cd9 a6be 4dfd 9cbe 7aa3 91be f7dd 27be
000000f0: 350b 75be 1ce2 59be 4f64 05be 5847 bebd
00000100: 4c37 0ebe d8d8 18be ee11 80be f3c4 44be
00000110: fdbb 58be a4dd 84be fad2 44be 23cd 87be
00000120: 4222 76be 9197 4cbe 60e3 debd 47a6 dfbd
00000130: 03a4 fdbd 1ba9 8fbe 43b0 35be 2aa4 87be
00000140: ffee 86be ba76 5bbe c3b4 d2bd a7b3 0fbe
00000150: 155d eebd 5bd5 94be b741 1abe 4f7b 9abd
00000160: 505f 5bbe ba14 19be 0689 abbe 04e1 83be
00000170: aaa6 62be 501e 3cbe e2a6 4cbe fa91 68be
00000180: b417 62be 672d 2c3d d158 62be 7238 fcbd
00000190: 0afb 59be d56c 4bbe 8266 57be 0f2a 24bd
000001a0: f7c9 2bbe 27d0 63be f6f1 51be 043f 94be
000001b0: 0e8b 30be b45f 17be 007d 57be ba86 7ebe
000001c0: 0b17 9dbe 57e6 00be 89f9 87be 2287 04be
000001d0: c95b 98be 2dbd c3bd d3ef 74be cbb1 22be
000001e0: bdff 5ebe fb93 18be d7b7 70be 3ac3 cebd
000001f0: 2ffb 4cbe 3329 3fbe 93ec 3fbe f257 24be
-0.025679879 -0.21409912 -0.16044103 -0.10738207 -0.2417397 -0.24191815 -0.11308556 -0.08793673
-0.1296815 -0.2549882 -0.09359076 -0.18076277 -0.15009965 -0.18391646 -0.20064738 -0.11618278
-0.20307878 -0.11370376 -0.18712561 -0.19613956 -0.2202243 -0.22782263 -0.22179785 -0.25316086
-0.13676453 -0.05023167 -0.06374358 -0.35882387 -0.079847686 -0.12940541 -0.19635347 -0.15780456
-0.19081037 -0.102690704 -0.17826942 -0.2598823 -0.26882607 -0.09943026 -0.16730979 -0.16528489
-0.07449676 -0.19128376 -0.38904735 -0.2261178 -0.15579431 -0.19706102 -0.053456407 -0.105395705
-0.26418903 -0.022747785 -0.18648012 -0.23253123 -0.18646057 -0.14233334 -0.24090312 -0.23188798
-0.32587564 -0.30662003 -0.28445035 -0.16393267 -0.23930056 -0.2127766 -0.13026546 -0.092909515
-0.13888282 -0.1492647 -0.2501368 -0.19215755 -0.21165462 -0.25950348 -0.19221106 -0.26523694
-0.24036506 -0.19979693 -0.10883212 -0.10920387 -0.123847984 -0.28058705 -0.1774302 -0.26492435
-0.26354215 -0.2143201 -0.10288384 -0.14033376 -0.11638848 -0.29069027 -0.1506413 -0.075430505
-0.21423078 -0.14949313 -0.33502978 -0.2575761 -0.2213389 -0.18370938 -0.19985536 -0.22711936
-0.22079355 0.042035487 -0.22104193 -0.123154536 -0.2128717 -0.19865735 -0.21035197 -0.040079173
-0.16776262 -0.22247373 -0.20502457 -0.28954327 -0.17240545 -0.14782602 -0.21043777 -0.24856082
-0.30681643 -0.12587868 -0.26557568 -0.12942174 -0.29757527 -0.09557567 -0.2391961 -0.15888135
-0.21777244 -0.149002 -0.2350763 -0.1009583 -0.20017694 -0.1866806 -0.1874259 -0.16049173

layer1.1.running_mean f4 [128]
00000000: 615c 703c 6ddc f03d e920 c9bd 404c acbd
00000010: 4418 5b3d 9026 433d 2027 e8bd 4bf7 413d
00000020: c9bd 3f3d 60f2 eb3c db49 ebbd be69 7b3d
00000030: 137e d4bd 642d 5f3d cdfd 19bd 36ad ffbd
00000040: a727 883d b4bc 773d 4e26 533a 3d31 923d
00000050: 9c11 cf3d 3fa1 ecbd ba7d e6bb b543 b83c
00000060: 0cfb e3bc 6595 9abd 52cb b33d 28b9 45bd
00000070: 9ab9 c93d 3f2f 54bd 111f 623d 22a3 b0bc
00000080: 17ef 363c 1bbf 8bbd 9cbb 173b fcdc 80bd
00000090: 6e18 bcbd f92f 43bd 5030 43bc 6397 803d
000000a0: 33b6 c3bd 259f 66bd faaa 923d ef45 0c3e
000000b0: 31a8 013e dd9d f8bd 104d 97bd 0668 c93c
000000c0: 0623 2c3c a02a ae39 921a 01be 5f06 b73d
000000d0: b922 51bd aadd 68bd 2357 983d 3739 14bd
000000e0: 1c6d 43bc 0214 9ebd cde8 65bc 5476 4fbd
000000f0: a829 f43c faab bfbd b511 10be 16c2 803d
00000100: 7ff9 643d 4b99 293d 22a2 e3bb d7b9 733c
00000110: 7d1b 2bbd 08a4 8e3d 748d c5bd 7e25 223d
00000120: 0a59 24bd 2801 df3c cb32 833d 476e 88bd
00000130: 4095 d63b 4c0c 523d 6041 0dbb 7ab1 9d3d
00000140: 5796 9abc de99 c2bd de9a b23d 584c 60bb
00000150: 42dc db3d 0ec8 29bd d8f5 723d 445f aa3d
00000160: d63f 5cbd b294 fabd 3279 c9bd 020f 253d
00000170: 6961 dfbd dbe4 8cbd 5ce1 69bc 13c1 f3bd
00000180: 1985 1cbd 87fe c0bc 4c64 313d f22e 893c
00000190: cbca 523d b71d 9bbd c5e1 ad3c 874c b1bd
000001a0: 1aa3 febb 8084 49bd ecbc 5c3d 41ff be3d
000001b0: 9b42 aebd d160 f33d fd34 763c 3ad1 c13c
000001c0: a5e8 de3d 602a 9abc 0e05 4c3d e420 64bd
000001d0: b93f e1bd e5a6 9abc 8fc4 6ebd c8be b7bd
000001e0: d809 c5bd 8641 ec3d d84f ce3c 3481 54bd
000001f0: c83a 993d 3020 1d3d 30b5 733d 99d5 1dbd
0.014670462 0.11760793 -0.0982073 -0.08412981 0.05348994 0.047644198 -0.113355875 0.047354978
0.046811853 0.028802097 -0.11488696 0.06138014 -0.10375609 0.054486647 -0.03759556 -0.12484209
0.06648188 0.060482696 0.0008054719 0.07138298 0.101107806 -0.11554193 -0.0070340307 0.022493223
-0.02782967 -0.07548026 0.08779015 -0.048272282 0.09849854 -0.05180287 0.05520541 -0.021562163
0.011165402 -0.0682356 0.0023152595 -0.062921494 -0.09184347 -0.047653172 -0.011913374 0.06278875
-0.09556236 -0.056304116 0.071615174 0.13698553 0.12661816 -0.12139485 -0.073877454 0.024585735
0.010506397 0.00033219624 -0.12607792 0.08936762 -0.051058505 -0.05685202 0.07438495 -0.036187377
-0.011927869 -0.0771866 -0.014032555 -0.050649956 0.02980502 -0.09358974 -0.14069255 0.06287019
0.055902 0.041405957 -0.006946818 0.014875851 -0.04177426 0.0696488 -0.09646121 0.039586537
-0.040123977 0.027222231 0.06406172 -0.06661659 0.0065485537 0.05128126 -0.002155386 0.076998666
-0.018870516 -0.09502004 0.08720945 -0.0034225192 0.1073537 -0.041450553 0.059316486 0.08318952
-0.053771816 -0.12235393 -0.09837569 0.040297516 -0.109072514 -0.06879588 -0.014274921 -0.1190206
-0.03821287 -0.023558868 0.04330854 0.016746018 0.05146293 -0.07574027 0.02122582 -0.086571746
-0.007770908 -0.049198627 0.053891107 0.093260296 -0.08508798 0.11883701 0.015027282 0.023659337
0.10884217 -0.018819034 0.049809508 -0.05569543 -0.10998482 -0.01887841 -0.05829292 -0.089719355
-0.09621018 0.11535935 0.025184557 -0.05188103 0.07481915 0.038360775 0.059498966 -0.03853378

layer1.1.running_var f4 [128]
00000000: 2609 843f 90a9 793f adf1 843f e564 4b3f
00000010: 03db 3e3f 0165 253f 867a 603f cb23 303f
00000020: 3dce 183f f583 3d3f 9bd9 773f 0f59 313f
00000030: 68f7 583f 397f 173f 1602 893f 5a38 603f
00000040: 53f2 8a3f 5e47 9e3f 40f6 253f 2275 6d3f
00000050: 52d0 413f 6bf0 663f ee16 1a3f 1f69 243f
00000060: ae2e 4b3f 2a2d 4b3f 288d 9b3f 98ff 613f
00000070: 46fa 243f c5fd 603f 731f 5e3f e45e 863f
00000080: c502 2b3f 1788 403f af73 683f 73a4 933f
00000090: 7c6a 473f aeb5 253f 881c 3e3f 93ed 293f
000000a0: 41f4 7a3f 4b4b 183f 4fad 283f 7284 183f
000000b0: 04c2 843f 0d37 8f3f ae43 183f c343 8a3f
000000c0: f036 293f 1ec4 4b3f 6230 853f 5fd1 2c3f
000000d0: e3dd 233f 6796 523f 7b7e 213f b07b 403f
000000e0: 1a68 803f a130 6c3f 63b1 063f 1635 883f
000000f0: 96fe 303f a1c2 783f e797 823f b5c3 1c3f
00000100: c552 483f b216 4e3f d677 4e3f e8bf 413f
00000110: d435 523f 37ed 5c3f f869 6a3f eb99 423f
00000120: 0408 493f 189d 633f 798a 453f 434b 4f3f
00000130: 448c 893f e6a1 063f 1bee 503f 50c6 0f3f
00000140: 3585 3e3f 184a 0a3f eb91 293f a15e 9b3f
00000150: 95a2 483f 8692 0b3f a5ec 853f 5b43 3d3f
00000160: 0702 b73f da7c 143f aff8 343f 0d1b 393f
00000170: e6d6 443f bee6 b73f 809d 193f 66d4 2f3f
00000180: fc21 333f 6d0c 003f 5eba 103f d365 823f
00000190: ebb0 253f a5b6 603f ba84 823f 8a04 5b3f
000001a0: ae19 433f e312 5b3f 3a4a 253f aaa0 213f
000001b0: 6dde 4d3f 19d0 453f 9240 323f b31a 383f
000001c0: b1ab 6f3f d020 083f 386b 1d3f 587f a23f
000001d0: f5e2 2b3f de76 843f 7e28 223f 3e09 173f
000001e0: 86dc 3d3f 7490 0f3f ff0d 353f c5e4 833f
000001f0: 6669 793f 9fcf 823f 3194 393f 0d5a 4d3f
1.0315292 0.97524357 1.0386254 0.7945083 0.74552935 0.64607245 0.87686956 0.68804616
0.59689695 0.74029475 0.96816415 0.6927652 0.8475251 0.591785 1.0703762 0.87585986
1.0855201 1.236553 0.6482887 0.92756855 0.75708497 0.902106 0.6019124 0.642229
0.793681 0.7936579 1.2152452 0.8828063 0.64444387 0.8788722 0.8676674 1.0497708
0.668011 0.75207657 0.9080152 1.1534561 0.7789686 0.64730346 0.74262285 0.66378134
0.9802895 0.5948989 0.6588945 0.59577096 1.0371709 1.1188675 0.5947827 1.0801929
0.6609945 0.79596126 1.040539 0.67506975 0.6401045 0.82260746 0.6308362 0.7518873
1.0031769 0.922617 0.5261442 1.06412 0.6913847 0.9717198 1.0202607 0.61236125
0.78251296 0.8050338 0.80651605 0.7568345 0.82113385 0.8629946 0.91567945 0.7601611
0.78527856 0.8891158 0.7716442 0.80974215 1.0745931 0.5259079 0.8161332 0.56161976
0.7442201 0.5401931 0.6623828 1.2138253 0.7837308 0.5452045 1.0462843 0.739309
1.4297494 0.5800301 0.7069196 0.723069 0.7689041 1.4367292 0.6000595 0.6868347
0.6997373 0.5001896 0.56534374 1.0187324 0.6472308 0.87778693 1.0196755 0.855538
0.7621106 0.85575694 0.64566386 0.6313578 0.8041752 0.77270657 0.69629776 0.7191574
0.93621355 0.5317507 0.6149173 1.2695112 0.67143184 1.0348775 0.63343036 0.5899848
0.7416462 0.5607979 0.7072448 1.030419 0.9742645 1.0219611 0.7249175 0.8021553

layer2.0.weight f4 [64, 128]
00000000: 622c 4b3d 2edd f2bc 7c1c cd3c 9ec8 99bd
00000010: 3170 4e3d 0f24 0ebe 391b 80bc 5f49 963d
00000020: 906c dc3d 046f 9e3d 545f 47bc 1068 94bd
00000030: d9c0 20bd 2483 22bd 043b c9bd 062d 90bd
00000040: 725c c9bd 021e 05be f45b 943d 1df1 61bb
00000050: 00f9 2bbc 8cdc b6bd 62f9 bb3d d1e6 d0bb
00000060: 46d2 dcbd ac27 853c a0cb d0bd cc26 8f3d
00000070: eeb1 40be 7ecd cf3c 592c dabb 0e56 38bd
00000080: cae2 29bd 1555 ab3d ec8e e3bc 2da2 7abd
00000090: 91f4 15bd c203 a9bd d1c7 4a3d a1aa aa37
000000a0: a954 51bd 0e22 e63c dbcc 7c3c 1227 993d
000000b0: d750 b6bd 2a17 1bbd 87da 8cbd 7d05 b2bd
000000c0: 039e e7bb b2a7 ebbd d955 17be e9f4 a2bd
000000d0: 4ee4 1a3e 0c46 f93c 91b9 7bbd 7658 2e3c
000000e0: d9d7 0abc 0c63 b7bc 7df7 a5bc a62a 15bd
000000f0: b32b a1bd d78c 9c3c c76c 6abc 103d c83d
00000100: 76a8 5d3d 2de6 0dbc b5e0 08bd 5061 3bbe
00000110: 440a c23d dd58 163d 12f0 933d f737 48bd
00000120: 8b41 e73d a524 8cbc 1530 cbbd 1475 7f3c
00000130: 42e2 cb3d 8d74 b1bc ff6a 00bd 3105 ca3d
00000140: 2066 03be 5b19 a93d 4b97 293d 2cbe e13c
00000150: 65bf cabc 6bf3 6abc b87e 02be cf03 03bd
00000160: 6cd0 7d3c 9b70 89bd d3ce c1bc 49c9 823d
00000170: e520 71bc 147a 14be 161e e23d c90d f1bd
00000180: 50d3 7b3d c597 783d 0736 17bc 6a19 bf3b
00000190: 6ce6 74bd 64a0 11be 63d3 833d 1f64 e2bd
000001a0: 73b7 4cbd 575a fa3b 9568 3f3e 0d15 573d
000001b0: c6f1 b0bb 14e2 b63c 35a1 cf3d 2e31 553d
000001c0: 6000 bbbc 32e0 cbbc 1934 5a3c 3109 983d
000001d0: b5e3 afbd 8115 63bc 791c 10bc 1557 0bbd
000001e0: 0d92 07be 4c87 a3bb 3128 7f3b 0fe5 873d
000001f0: 483e cdbb d856 893d 56c3 b7bd ce33 0bbd
00000200: 2d8a 773c 3466 a53c b2d5 5d3c 878a e3bd
00000210: 40b9 90bd c20e 4dbd 494c e2bc f30b c1bc
00000220: 05f6 b5bd c21f dbbd 9938 d4bb 2c11 dabc
00000230: 1cb3 0bbe f329 c5bd 8998 b5bd d13a d93c
00000240: f319 2b3d ee2e 78bd 484d a3bd 22d7 02bd
00000250: 5069 e4bd 2ca0 ae3c 5776 90bd 5d95 083d
00000260: 5849 523d 7313 a73d bc39 1f3d de6a 17be
00000270: e48d 5cbd a311 d3bd 76bd 15be 329f aebc
00000280: 4aa5 b0bd 34d2 acbd 09c8 6fbd 163d 9dbd
00000290: c0b2 c03c 3fe7 963b b643 8e3c d47d a63c
000002a0: 6c1c febd ba43 4dbd 761b d4bd c3ea a7bc
000002b0: 4b49 ccbd eeaa a43c 3a37 173d 2b34 71bd
000002c0: ac29 b7bc cac3 0a3d f2de 093d 2c32 15bc
000002d0: 616c d3bd 5441 23be e673 88bd 537b 95bd
000002e0: 0367 b1bd e5c8 98bc f556 50bd 2c35 a5bd
000002f0: 898c b73d ea35 573d 7b5f 1d3c 1bc3 9fbd
00000300: 90a9 0dbd 1ded 24bc 2dda d73b 5a7a a7bd
00000310: 0db6 a93d dc39 ac3d afef 27be 5e17 67be
00000320: 628f e43c bc04 02be cb60 43bd f002 79bd
00000330: 0eb5 89bc ba5c 7bbd cc52 dcba a7a6 8abd
00000340: ad3d 00be 43b8 733d 0754 1bbd b4d0 833c
00000350: 5675 6cbd 3a87 ca3d 462d 55bd 320f e63a
00000360: 314e 683d 5cc3 01bd f0c4 3cbd 5dfe c1bd
00000370: 189e fd3c 5945 fdbc 6d2e e0bd 9a15 79bd
00000380: acfd 11bd 3d08 5a3b dd2e 8cbd 1ce6 b43d
00000390: 0f94 95bd dfd6 5b3c 10c1 70bd 8edf 0f3d
000003a0: 5337 a5bd 4135 8d3d ea02 11be a71b a9bd
000003b0: 1c6c 24bd 9a67 523c 310f fe3b 34c0 b4bd
000003c0: 4b58 9d3d a082 d63d bb6d 08be 0440 f9bd
000003d0: ea3e 67bd df3e cebd de58 d23d 3187 ad3d
000003e0: 0eb2 e83d cd2a b9bc 2e7a a3bd 7235 643c
000003f0: 34be 8dbd 88ab a13a 9bec 713b 35b3 423d
0.049602874 -0.029646482 0.025037996 -0.07508968 0.050399963 -0.13880943 -0.01563798 0.07338213
0.10762894 0.07736018 -0.012168724 -0.07246411 -0.039246414 -0.039675847 -0.098257095 -0.070398375
-0.09832086 -0.12999728 0.07244101 -0.003447599 -0.010496378 -0.08928785 0.09178425 -0.0063751717
-0.10782294 0.016254269 -0.101950884 0.06989822 -0.18817875 0.025366541 -0.0066581187 -0.045003943
-0.04147605 0.083658375 -0.027778111 -0.06118982 -0.03661019 -0.0825267 0.049506966 2.0345034e-05
-0.05110613 0.02809241 0.015429701 0.07478155 -0.08902138 -0.037863888 -0.06877618 -0.08692453
-0.007068397 -0.11506595 -0.14778842 -0.07956869 0.15126154 0.030428909 -0.061456267 0.010641208
-0.008474314 -0.022386096 -0.020259613 -0.036417626 -0.07869663 0.019110126 -0.014308161 0.09777272
0.054115735 -0.008660835 -0.033417422 -0.1829884 0.09474614 0.03670584 0.07223524 -0.048881497
0.11291798 -0.017107317 -0.0992128 0.015591878 0.09955265 -0.021662021 -0.03135204 0.098642714
-0.12831926 0.08256789 0.04140405 0.027556501 -0.024749467 -0.014340262 -0.12743652 -0.031986054
0.015491586 -0.06710931 -0.023658192 0.06386048 -0.014717315 -0.14499694 0.11040895 -0.117702074
0.06148082 0.060691614 -0.00922919 0.005831887 -0.05979006 -0.1422134 0.06436803 -0.11054253
-0.04997964 0.007640164 0.18692239 0.05251031 -0.0053999154 0.0223246 0.1013817 0.052048855
-0.022827327 -0.024887178 0.013318085 0.07423628 -0.085883535 -0.013860107 -0.008795851 -0.034018595
-0.13239308 -0.004990494 0.0038933868 0.06635486 -0.006263528 0.06706017 -0.08972804 -0.03398495
0.015108627 0.020190336 0.013539718 -0.11110406 -0.07066584 -0.050062902 -0.027624266 -0.023565268
-0.08884815 -0.10699417 -0.0064764735 -0.026619516 -0.13642544 -0.09627142 -0.088669844 0.026517304
0.041772794 -0.06059163 -0.079737246 -0.031943448 -0.11152899 0.02131661 -0.070538215 0.03334557
0.051339477 0.081580065 0.03887342 -0.1478686 -0.053846255 -0.10306098 -0.14623055 -0.021316145
-0.086252764 -0.084385306 -0.058540378 -0.07677667 0.023522735 0.0046052034 0.017366271 0.020323671
-0.12407765 -0.050113417 -0.103568 -0.020497685 -0.09974917 0.020101037 0.036917903 -0.058887642
-0.022358738 0.033878125 0.033659883 -0.0091062 -0.10323406 -0.1594289 -0.06662731 -0.07298913
-0.08662226 -0.018650481 -0.05086418 -0.08066782 0.08962352 0.05254165 0.009605284 -0.07800885
-0.034585536 -0.010066298 0.006587288 -0.081776336 0.082866766 0.08409473 -0.16400026 -0.22567508
0.027900402 -0.12697119 -0.04769973 -0.060793817 -0.016809966 -0.061367728 -0.0016809343 -0.06770068
-0.12523527 0.059501898 -0.03792193 0.016090728 -0.057729088 0.09889074 -0.05204513 0.0017552136
0.056715194 -0.03168045 -0.04608625 -0.09472344 0.030959174 -0.030916857 -0.10946355 -0.060811616
-0.03564231 0.003326907 -0.06844876 0.088329524 -0.073036306 0.0134179285 -0.05877787 0.035125308
-0.08067193 0.06894923 -0.14161268 -0.082572274 -0.040142164 0.012842083 0.007753276 -0.08825722
0.07682856 0.104741335 -0.13323109 -0.12170413 -0.056456484 -0.100705855 0.10270856 0.08473051
0.11362086 -0.022603417 -0.07982288 0.013928758 -0.06921044 0.0012334445 0.003691471 0.047534186

layer2.0.bias f4 [64]
00000000: 5ee0 9a3d ecb4 a23c 622f 703d c82b 323d
00000010: a926 49bd fc42 9e3d dde7 5bbd b18a a83d
00000020: a69a a5bd 87f1 cf3b 15cc 32ba 856c 61bc
00000030: bf7d ddbc 1ef1 a2bd 085d 933d e8d4 c4bc
00000040: f194 9c3c 001f c63c 6b04 63b9 aacf 563d
00000050: 59e7 823d 9e9e 34bd f810 85bd baac a0bd
00000060: f5d4 a03d 3c99 8ebd c17b fdbb 4992 833d
00000070: 0f6e 903d e860 67bd ad57 97bd c0aa 58bd
00000080: f87f 97bd 9268 483d d730 a1bd f5d0 36bd
00000090: c587 983d feb9 a0bd aeb3 57bd 44e1 35bd
000000a0: c94e d3bc fc6f a03a 97bd c039 eab8 a83d
000000b0: c101 883c 3263 753c b61c bcbb 40d6 9cbd
000000c0: ff61 a4bd 9493 b23c 9635 b03c c027 70bc
000000d0: 5367 2fbc e013 fe3c ef83 f93c 05a5 713c
000000e0: bd28 99bd c101 12bd cf6b 47bd 0a8a a4bd
000000f0: 680f 933d 938b 1f3d 5793 4b3d 532f b6bd
0.07562326 0.01986166 0.058638938 0.043498784 -0.049109135 0.0772762 -0.05368792 0.08229578
-0.080861375 0.006345931 -0.0006820572 -0.013758783 -0.0270375 -0.07956146 0.07195479 -0.024027303
0.01911399 0.024184704 -0.00021650053 0.052444138 0.06391782 -0.04409658 -0.06497377 -0.07845445
0.07853118 -0.06962821 -0.0077357 0.06424386 0.07052242 -0.0564889 -0.0738977 -0.052897215
-0.07397455 0.04892785 -0.078706436 -0.04463287 0.07447771 -0.07847975 -0.05266159 -0.044404283
-0.025794404 0.0012240405 0.0003676235 0.082383946 0.016602399 0.014977263 -0.0057407273 -0.076580524
-0.08026504 0.021798886 0.021509927 -0.014657915 -0.010705787 0.031015337 0.030458419 0.014748816
-0.07478473 -0.035646204 -0.0486868 -0.08034141 0.07180673 0.038951468 0.04970106 -0.08895745

layer2.1.weight f4 [64]
00000000: d3d7 6e3f 0a10 893f 7544 753f 525e 783f
00000010: acf3 7a3f 5d7d 803f 919b 733f 134b 773f
00000020: 59f5 6b3f e84c 883f d0bf 773f 6169 803f
00000030: c83a 843f 5182 803f 4096 833f 5c4e 813f
00000040: 91ca 6f3f c040 803f 1ff6 6a3f 27a5 773f
00000050: 4b2e 703f 874b 773f 36b2 793f cf88 793f
00000060: 7f26 833f 6d27 723f 1fac 803f 7c3e 703f
00000070: 67ab 783f 4389 813f ec7f 7b3f d547 753f
00000080: 2065 803f 3e17 7c3f 5698 863f 13cc 803f
00000090: be22 893f 6510 7e3f dcd4 773f 4cf6 843f
000000a0: 0f33 783f e0f6 803f 7f56 843f 174a 813f
000000b0: bd85 7f3f 9087 873f d4e8 8a3f bf18 843f
000000c0: 28b3 863f c4c6 853f 4267 7f3f d139 6e3f
000000d0: 7ff0 7e3f 0d6b 873f 8150 823f 42fb 7e3f
000000e0: f4e2 743f bbf6 853f 1ebf 6f3f 83b3 803f
000000f0: 2611 813f f91d 763f fd27 783f 3cde 833f
0.9329807 1.070802 0.9580758 0.9701892 0.98028064 1.0038258 0.9515925 0.9659893
0.92171246 1.064847 0.9677706 1.0032159 1.0330439 1.003977 1.0280228 1.0102038
0.93668467 1.001976 0.917818 0.9673638 0.9382064 0.9659962 0.97537553 0.9747438
1.0246123 0.9459141 1.0052527 0.93845344 0.9713654 1.0120014 0.9824207 0.9581273
1.0030861 0.98472965 1.0515239 1.0062279 1.0713727 0.99243766 0.9680917 1.0387664
0.9695291 1.007534 1.0338897 1.0100735 0.99813443 1.0588245 1.0852304 1.0320052
1.0523424 1.0451283 0.99766934 0.9305697 0.9958572 1.0579544 1.0180818 0.9960214
0.95658803 1.0465921 0.93650997 1.0054783 1.0083358 0.96139485 0.9693602 1.0302196

layer2.1.bias f4 [64]
00000000: c646 1abe 5356 49be f6c7 d2bd 680c d4bd
00000010: cb80 73be 7809 1ebe 426b c4bd 0f85 2bbe
00000020: 2b9a eebd 57ab 94bd 9dfb e0bd cb52 a3bd
00000030: a195 47be e75f d2bd bc32 12bd df4e 36be
00000040: 5eaa 1fbe 6c24 3ebe 9e06 88bd 61aa 58bd
00000050: 257b 09be b05a e6ba 9333 5abd 48c5 62be
00000060: 4842 86bd 78eb 7cb9 879c f0bd 9e15 82bd
00000070: a2e8 0ebd 7b73 90bd fee8 18be 1644 01bd
00000080: 6619 48be bb5c 7fbd d308 24be 8c2a a0bd
00000090: 6b6f 0c3d 661d 51bd 27e5 9cbd 11af db3b
000000a0: eec0 d9bd 4e5e 643d c852 46bd 7cdd c8bc
000000b0: f1f5 59be afb8 c7bc 4130 6a3c 7e4d fabd
000000c0: be24 c5bd 0960 adbd 7af9 f9bd b489 9dbe
000000d0: d09b a2bd 59e0 7abd 194e a2bd 13d9 39bd
000000e0: b466 293d aa2e 20be 4cbe a1bd d950 fabd
000000f0: 70e2 13be 35a3 6dbd a4d3 cfbd fbd4 fabd
-0.1506606 -0.19661836 -0.10292046 -0.10353929 -0.237796 -0.154333 -0.0959077 -0.16749977
-0.11650499 -0.07259243 -0.109854914 -0.07974776 -0.19490673 -0.10272198 -0.035692915 -0.17803524
-0.15592334 -0.18568581 -0.06641887 -0.05289686 -0.13425882 -0.0017574634 -0.05327184 -0.2214557
-0.06555611 -0.00024120312 -0.11748605 -0.063517794 -0.034889825 -0.07053276 -0.1493263 -0.031559072
-0.19540939 -0.062344294 -0.16018991 -0.07820615 0.034285944 -0.051053427 -0.07660895 0.006704219
-0.106325015 0.055754 -0.04841879 -0.024519674 -0.21285225 -0.024380056 0.014293731 -0.12221812
-0.09626149 -0.08465583 -0.12205787 -0.30769122 -0.07939875 -0.06124911 -0.07925052 -0.045373034
0.04135771 -0.15642801 -0.078976244 -0.12222452 -0.14441848 -0.058016974 -0.10147789 -0.12247654

layer2.1.running_mean f4 [64]
00000000: 07ff d6be b2b3 88bf 1aeb 15be 1bae 95be
00000010: 3cf3 9cbf ed06 e2be a2a8 02be c447 3bbf
00000020: 455b e7be a682 24bd f070 2d3f 7397 0ebf
00000030: c91b 46bf 2aeb 11bf f6f9 83be f4b2 eebe
00000040: 6093 42bf d215 87be f02d 81be 0ee4 4dbe
00000050: 0f62 183d efe0 823f 926d 07be 2918 f3be
00000060: 692d 293f 24d3 b6be 9702 51bf 3149 56be
00000070: 7435 51be 80a1 35be 7f2b 37bf 205f 173d
00000080: c976 a3bf 2fcf ddbe e996 9abf c71f 9ebe
00000090: a589 5abe 5c12 a4be aac7 703c b7ae 6ebf
000000a0: 7028 5cbf 4b1e 063e 9a42 2fbf 53c5 703f
000000b0: eaf1 bcbe cd99 5dbf 96ca 03bf da64 19bf
000000c0: 01ea 88bf 5de9 1abf b991 e4be 4741 03bf
000000d0: 6256 bb3e 1f87 22bf 77be 46bf c28e 17bf
000000e0: a015 a1be 3e9c 51bf 5306 8abe 30db 01bf
000000f0: 750e 1f3f 25a9 cfbd 3e06 bcbe d9c3 d7be
-0.41991445 -1.0679839 -0.14640465 -0.29234394 -1.2261729 -0.4414591 -0.12759641 -0.7315638
-0.4518682 -0.04016366 0.67750454 -0.55699843 -0.77386147 -0.56999457 -0.25776643 -0.46620905
-0.76006126 -0.26383835 -0.2523036 -0.20106527 0.03720289 1.0224894 -0.13225392 -0.4747937
0.66084915 -0.35707963 -0.81644577 -0.20926358 -0.20430547 -0.17737389 -0.71550745 0.036955953
-1.2770625 -0.4332213 -1.2077304 -0.3088362 -0.2134157 -0.32045257 0.014696041 -0.93235344
-0.859992 0.13097493 -0.68461 0.9405109 -0.36903316 -0.86562806 -0.51480997 -0.5991951
-1.0696412 -0.60512334 -0.44642428 -0.5127148 0.36589342 -0.6348743 -0.77634376 -0.59202206
-0.3146181 -0.8187903 -0.2695795 -0.5072508 0.62131435 -0.10139684 -0.36723512 -0.42141607

layer2.1.running_var f4 [64]
00000000: 8a58 ea3e 2317 043f 83b1 f23e 6f76 dd3e
00000010: 5c81 323f 3752 2a3f 4b63 aa3e f4b5 fe3e
00000020: 70ed c63e c691 0a3f 6d2c 023f 3f59 093f
00000030: 04e7 f53e 2561 203f b8d5 103f f639 193f
00000040: ae6e 0f3f 4c4a 233f e844 083f fb91 023f
00000050: 390c ff3e 25c4 053f fbd6 2c3f e969 183f
00000060: 4eb7 2e3f dafc e73e e908 0b3f c7c7 273f
00000070: 8772 0d3f 8e07 123f 9abf 333f 4690 0a3f
00000080: d802 023f e596 093f 55ed 0d3f 3155 303f
00000090: ff22 253f e321 dc3e 345d d03e 08eb 163f
000000a0: 28d5 253f b180 293f 3787 f43e 4e82 053f
000000b0: 9e05 0d3f ac09 283f 5454 4f3f fc71 263f
000000c0: fe7d 253f b949 d03e a7b4 223f 076c 1d3f
000000d0: 47d5 b13e bcec 2b3f 536c 223f 2b73 4e3f
000000e0: 719b 263f 5ee7 fc3e 670b 3e3f f227 3d3f
000000f0: 6af6 103f 446e bd3e 2c44 133f e80d 0e3f
0.45770675 0.51597804 0.47401056 0.4325442 0.69728637 0.665317 0.3327888 0.49748194
0.38853025 0.5412868 0.5084904 0.53651804 0.48027813 0.6264823 0.5657611 0.59854066
0.5602826 0.63785243 0.5323014 0.51004 0.49814013 0.5225242 0.67515534 0.59536606
0.6824845 0.45310098 0.5431047 0.6553921 0.5525288 0.5704278 0.70214236 0.54126394
0.5078559 0.5374587 0.55440265 0.6887999 0.64506525 0.42994604 0.40696108 0.5895238
0.64778376 0.6621199 0.4775941 0.52151954 0.55086696 0.6563976 0.8098805 0.65017676
0.64645374 0.40681246 0.63556904 0.6149296 0.3473303 0.67158103 0.6344654 0.8064448
0.65080935 0.4939527 0.7423615 0.73889077 0.56626 0.36998188 0.575259 0.5548997

layer3.0.weight f4 [32, 64]
00000000: 886e b13d 50e2 36be c234 7a3b 5cda a03c
00000010: a8b7 093d 2c77 2c3e 8846 4f3d 3f09 0a3e
00000020: 6064 a7bd f508 913d 1e6a 0dbe 13ab 2f3c
00000030: 34db 0c3d 1551 26bd 9f52 ac3c 65b1 b63d
00000040: bfa6 9f3d 1f19 cd3d 82c4 a2bd 0656 573c
00000050: 0627 4cbd b6af 0abe 6452 3abe 49aa 103e
00000060: 1d64 06be eb3d dbbd 2595 f5bd 0c84 123e
00000070: 6b9c f9bd 53a1 5dbc 6d8a c2bd b81a 1d3d
00000080: 184b fbbd 8cf4 b73d 2f97 d13b a6e4 a83c
00000090: 7146 0a3c 2827 b93d 0af3 03bd 3a69 95bc
000000a0: d9bd afbb bb0d 3ebd fc19 3fbe 2d65 debd
000000b0: fba5 00bd fc65 12be 64a4 21be 1745 1ebd
000000c0: ea8c 6cbe 5126 ddbd b142 65bd c276 ec3d
000000d0: 2905 82bd d52e 97bd 755c 19be 443e 9d3d
000000e0: 5387 c2bc 45c7 39be 48a4 dfbd dabe cc3d
000000f0: b8b2 8ebd 9fb7 9d3d 3b42 4c3d 37b9 0d3e
00000100: 0fda bf3d 3f5a 893d 5be9 efbd 17f3 b8bb
00000110: eea3 f83c fd54 c23d 1298 98bd c3c8 b13d
00000120: a971 a1ba 17bb a1bd 1425 adbc 7db0 b33d
00000130: 3ac9 063e 70f4 a23d af90 a8bc 7dc9 26bc
00000140: a40f f03d 702f 143e fa0c 2fbd 3c4f e33d
00000150: 654a de3d 23f0 14be 6c6b 9b3d c771 40bc
00000160: c47f 68bd 9b43 333d 4e27 4bbd ffaa a13c
00000170: ef68 85bd 15e0 8cbc b0b9 763d 49b9 55bd
00000180: 50a6 523e 1fda 11be 95ba 8f3c 76d4 8c3d
00000190: d042 eabd 512b ea3d cd7b 09be 2d26 febd
000001a0: 323f ad3c e036 a6bd 9b96 3fbd a2f5 6cbd
000001b0: 54f0 1a3e 569f 843d df28 18be d51a b53d
000001c0: 2657 373e 3990 933c e669 9e3d ab69 ee3d
000001d0: 57cf cfbd 8092 fabd 1ea5 e13d 0144 15bd
000001e0: 6ec8 7bbd 89cc 2d3c 29e0 d4bd 8d00 0bbd
000001f0: b21a af3b a7f9 00be b816 bcbc 2c37 f7bd
00000200: dcc7 1ebd 6156 623e 8285 343a 60d7 42be
00000210: cdf3 6bbc f101 b8bd ff9d 83bd 9b42 96bd
00000220: b228 f4bd 7252 25bd 1627 ab3c b850 b33d
00000230: 432f cbbd b97e a63d 22e4 0bbc ad38 8fbd
00000240: d8f0 f2bd 1a23 f4ba aed3 413d 8dde 34be
00000250: 99e2 46bd 2a50 25bd 8336 c43d c0c9 8c3d
00000260: 0dad 6d3d 9447 b6bd 1523 593d 8ee4 ebbd
00000270: 4b9c b43d cb12 eabd 9d52 8dbd d344 b73d
00000280: 7665 8c3d 114a 6bbd f06e 903d d44a 33be
00000290: 9b80 5f3d 0771 063d ae44 c5bc 9d37 e3bc
000002a0: 6ce1 713d 19b9 2b3d afb3 b8bd 14e5 fd3d
000002b0: 0b2e febd 8b23 123c 7be0 183d 792a 0ebd
000002c0: 9eaa ed3d 7517 b13d 31f1 88bd 8fa9 c1bd
000002d0: 08ac b1bd dd09 b33d 58f2 053e 071d 50ba
000002e0: 53e8 363d 740e 2d3d c002 c03d fcf2 943d
000002f0: 3a42 2a3e e2b4 b23a 5f69 3cbe c130 75bd
00000300: 36fa 833c 9c2b e7bd 8981 f9ba d134 713d
00000310: a959 a23d 0ff0 5e3d c385 943d fb82 013e
00000320: d0e5 00be 8c5b 3e3d 5239 213d 712b b3bb
00000330: 30bf ab3d 0aed 1bbe af3d e73d 3763 afbb
00000340: 5692 e13d 9854 6b3d a9dd 9bbc 5b8e 6abc
00000350: c8bc 91bd e90e f3bd 46d7 6d3a a85e e33c
00000360: 44e9 f4bd 9790 e1b9 964f e6bd e017 a73d
00000370: 682c c4bd a9a2 883d bc46 853d 3cc4 ecbd
00000380: 8a09 4a3d 9e25 9cbd 253c ba3d 1ff8 f03d
00000390: 1e0e 1cbe 73c5 143e ec8b dabd 93ac 06be
000003a0: 93a3 f83c f9d9 57be 2656 b5bd 825a d2bd
000003b0: 1860 873d 46f1 25be a18a 40be 92ad 58bc
000003c0: 0bcb 0cbd 0e10 15bb 3513 b53d 3c90 cd3d
000003d0: 9776 5d3d bdec 213c 82cd 56be c850 a0bd
000003e0: 2665 23bc 020f 79bc 80f0 cc3d f555 c13d
000003f0: 39fa 06be 012b a9bd e44a 9d3d 3864 c8b9
0.0866366 -0.17859769 0.0038178419 0.019635372 0.033622414 0.16842335 0.050604373 0.1348009
-0.08173442 0.070817865 -0.13810012 0.01072194 0.034388736 -0.04060467 0.02103549 0.08920554
0.07795476 0.10014557 -0.07947637 0.013143068 -0.049841903 -0.13543591 -0.18195492 0.14127459
-0.13124128 -0.10705169 -0.11991338 0.14308184 -0.121880375 -0.013527232 -0.09499059 0.03835556
-0.12270182 0.089821905 0.0063961963 0.02061684 0.008439646 0.090406716 -0.032214202 -0.018238652
-0.005363208 -0.046399813 -0.18662256 -0.108591415 -0.03140829 -0.14296716 -0.15785366 -0.038640108
-0.2310063 -0.10798324 -0.055971805 0.11546089 -0.063486405 -0.073819794 -0.14976676 0.07677892
-0.023746168 -0.18142422 -0.10920006 0.099973395 -0.06967682 0.077010386 0.04986785 0.13840185
0.09367763 0.06706666 -0.11714431 -0.005644213 0.030351605 0.094888665 -0.0745088 0.086808704
-0.0012317199 -0.07897013 -0.021135844 0.08773897 0.131627 0.07956779 -0.020576803 -0.0101798745
0.11721733 0.14471221 -0.042736985 0.11099097 0.108540334 -0.1454473 0.075888485 -0.011745877
-0.05676247 0.043765645 -0.04959803 0.019734858 -0.06514155 -0.017196694 0.06023568 -0.052178655
0.20571256 -0.14243363 0.017545024 0.06876461 -0.11438525 0.11434043 -0.13426133 -0.12409625
0.021148298 -0.08115935 -0.046774488 -0.05785144 0.1513074 0.064757034 -0.14859341 0.088430084
0.17904338 0.018013107 0.07735042 0.11641248 -0.10146969 -0.12234974 0.11017822 -0.036441807
-0.06147044 0.010607847 -0.10394318 -0.033936072 0.0053437585 -0.12595235 -0.022960052 -0.1207107
-0.03876482 0.22103263 0.00068863493 -0.19027472 -0.014401388 -0.08984745 -0.0642662 -0.07336923
-0.119218245 -0.04036183 0.020892661 0.0875563 -0.09921124 0.08129639 -0.008538278 -0.06993232
-0.118623435 -0.0018626184 0.047321014 -0.17663021 -0.048555944 -0.040359654 0.0958071 0.06874418
0.058026362 -0.08900371 0.053011972 -0.11518203 0.08818873 -0.11429366 -0.06900523 0.08948674
0.0685529 -0.057443682 0.0705241 -0.17509013 0.054566007 0.032822635 -0.0240806 -0.02773648
0.05905287 0.04192457 -0.09018647 0.12397209 -0.12411126 0.008919607 0.037323456 -0.034708474
0.11604808 0.08647052 -0.066866286 -0.09456169 -0.086753905 0.08742116 0.13080728 -0.0007938896
0.044655155 0.04225011 0.093755245 0.07272908 0.16626826 0.001363423 -0.18399571 -0.05986095
0.01611052 -0.11287615 -0.0019035797 0.05888826 0.079272576 0.054428156 0.072520755 0.12647621
-0.12587667 0.046474025 0.039361306 -0.005467825 0.083860755 -0.15227142 0.11291062 -0.0053524035
0.110142395 0.05745372 -0.019026594 -0.014316167 -0.07116085 -0.11868078 0.0009072911 0.027755097
-0.119585544 -0.00043023072 -0.112456486 0.08158851 -0.09578782 0.0667165 0.06507632 -0.11560866
0.049325503 -0.076243624 0.09093503 0.11766075 -0.1523976 0.14528446 -0.10671219 -0.1315177
0.030351436 -0.21079244 -0.08854322 -0.10271169 0.06610125 -0.1620532 -0.18802883 -0.013224976
-0.034373324 -0.0022745165 0.08841554 0.10037276 0.054068174 0.009883103 -0.20976833 -0.07827908
-0.009972846 -0.015201332 0.10006809 0.09440223 -0.1318139 -0.082601555 0.076803 -0.0003822164

layer3.0.bias f4 [32]
00000000: 18cc 963d 9aa8 003e 2897 da3d 2bb6 efbd
00000010: 89e7 4cbd dfc0 15bd c3b9 c6bb 4e54 e7ba
00000020: 4482 d0bc f442 46bc 0e3a c8bd 70f8 d73d
00000030: 9399 e7bb bc1a d03d 2bd5 cd3d 742a 5dbd
00000040: 06dd 90bd 3298 683d c936 f63d ef84 b43c
00000050: 9fc0 103c 3919 403c 2de7 933d 7cd1 eebd
00000060: 44e1 7d3d 084a 32bd 2477 a2bd 7c28 ea3d
00000070: 0b9e cdbd ecf9 d6bd b3b3 febc 8294 f53d
0.073631465 0.12564316 0.10673362 -0.11704668 -0.050025497 -0.03656089 -0.006064625 -0.0017649026
-0.02545274 -0.012100924 -0.09776698 0.105454326 -0.007067868 0.10161349 0.10050424 -0.053995565
-0.07073407 0.05678577 0.12022168 0.022036044 0.008834987 0.011724764 0.07221828 -0.1166105
0.06198241 -0.043527633 -0.079328805 0.11433503 -0.1003991 -0.104968876 -0.031091547 0.11991216

layer3.1.weight f4 [32]
00000000: 47b2 893f 8359 823f 1c50 7f3f eb87 7a3f
00000010: f74e 833f 48ca 763f a92b 8c3f 6f1c 7e3f
00000020: a520 7d3f 923a 823f 8c87 873f dc76 923f
00000030: b6f7 8f3f b5d8 783f bb80 9a3f 7f7b 8c3f
00000040: 54f1 773f 34bf 733f d84e 833f a515 7d3f
00000050: 483f 803f d2a4 8a3f e81f 8f3f 8839 813f
00000060: f1e2 883f 04be 803f b78a 823f 53fe 983f
00000070: 761a 833f ea3c 843f 5788 763f bc83 7b3f
1.0757531 1.0183567 0.9973161 0.97863644 1.0258473 0.96402407 1.0950824 0.99262136
0.98877937 1.0174124 1.0588241 1.1442523 1.124747 0.9720567 1.2070535 1.0975188
0.9685261 0.9521363 1.0258436 0.9886115 1.0019312 1.0831549 1.1181612 1.0095682
1.0694257 1.0057988 1.0198582 1.1952614 1.024245 1.033109 0.9630179 0.98247886

layer3.1.bias f4 [32]
00000000: e51a 6b3d 33fd a9bd acec 5e3d 593a b4bc
00000010: 0fd8 6cbd 4add 94bd b64d e73d 292a dfbb
00000020: f3e8 38bd 5e7c 1cbc 3c58 67bd 24bc 293e
00000030: 3030 df3d 2dff 19bd 1e68 473e a27c 0b3e
00000040: d7e7 32bd dcde 63bc 4de0 9f3d ae5e 49bd
00000050: e9a1 44bd e6bd 353e 91e7 313e 5a37 e93c
00000060: dd39 733d 8972 a6bb bac4 57bc 6362 143e
00000070: cecd 68bd 8e9c b93d 139c 5bbd be4e 1b3d
0.057398695 -0.08300247 0.054424927 -0.022000479 -0.057823237 -0.0726877 0.11294119 -0.006810446
-0.045144033 -0.009551136 -0.05648063 0.16575676 0.10897863 -0.03759687 0.19473311 0.13621762
-0.04367813 -0.013908114 0.07806454 -0.04916256 -0.048005972 0.17748222 0.17373492 0.028468776
0.059381355 -0.0050795716 -0.013169462 0.14490657 -0.056836896 0.090630636 -0.05361564 0.03791689

layer3.1.running_mean f4 [32]
00000000: 6a7c f8be 62a3 f93d 8775 e33c 3f69 f7be
00000010: a5df cbbe 48cd 99bd bc18 e4bd c4e5 593e
00000020: eab7 0dbf 08ec a9be aa9b 36bf f0f9 debd
00000030: 0983 16bf 61fd cd3d f901 49be 3c5a b53c
00000040: a0b4 62bf ea86 50bf a474 ccbe 427f e0be
00000050: e406 803e 2ea9 ee3d 4983 23be 2c16 0abf
00000060: 4e80 5abf 7a3e fd3c 1e59 9ebe 1330 a2be
00000070: a69b 2d3d 7118 8ebe 59de 84bf 36ee 14be
-0.4853242 0.12189366 0.027766002 -0.48322484 -0.39819065 -0.075098574 -0.1113753 0.21279055
-0.55358756 -0.3318789 -0.71331275 -0.108875155 -0.58793694 0.10058094 -0.19629659 0.022137754
-0.8855686 -0.8145586 -0.3993274 -0.4384709 0.25005257 0.11653362 -0.1596805 -0.5394008
-0.8535203 0.03091358 -0.30927366 -0.31677303 0.042384766 -0.27753022 -1.0380355 -0.14543995

layer3.1.running_var f4 [32]
00000000: 5c75 ce3f 8d58 493f e44b 993f 289e ad3f
00000010: 9577 753f 5ba3 673f a03c d03f c6b6 ff3e
00000020: fc52 a03f 15d7 fc3e 8316 cc3f 95f5 a93f
00000030: 3852 7a3f 187d 013f f2d7 c33f 8416 d43f
00000040: a7c7 3c3f 5102 313f 25ae 3f3f 3f3a 9a3f
00000050: 8413 0a3f 190c 7f3f c105 a53f 478b 2f3f
00000060: def4 993f 6bdb 293f 59ec 963f 882d a53f
00000070: a039 153f 59d7 b23f 97cf 413f f9cd c03f
1.6129565 0.7865074 1.1976285 1.356389 0.9588559 0.90483636 1.6268501 0.49944133
1.2525325 0.49382845 1.594437 1.3278071 0.97781706 0.505815 1.5300276 1.6569371
0.73742145 0.6914416 0.748751 1.2049025 0.5393603 0.99627835 1.2892381 0.68571895
1.2027853 0.6635043 1.1790878 1.290452 0.58291054 1.3971969 0.7570738 1.5062858

output.weight f4 [3, 32]
00000000: 2520 6bbe c04a 11be a296 073e de64 09be
00000010: 6a80 15be 9f36 94bd 4d11 7c3e f9ff b3bc
00000020: 0f72 e8bd a612 a53d d713 8ebd e13e 693e
00000030: 5283 b13d f391 f63d 882f 6d3e e5b7 403e
00000040: ccb4 b4bd 2283 13be 8fa1 ad3d c164 8bbd
00000050: 5af8 a63d bbb1 4c3e d96b 4d3e b8d4 99bd
00000060: f566 b7bd c31a b53d d8fb e9bc eb1f 553e
00000070: 3641 053e bcff 89bc e92b 1abe 29b5 a9bd
00000080: fb38 a9bd bae9 6bbe 1755 85bd e25f 81bd
00000090: 1b26 103d 87c1 88bd ce6d 233e 8a59 08be
000000a0: bec1 a03d f137 343e f05e bd3c e3d3 103e
000000b0: 4a0a b53d 449b 72bd a96a 293e 8396 cf3d
000000c0: efc7 b73d 6c6a a4ba 8ff1 143e 73da 6a3d
000000d0: 3ddf 4abe ef0f ea3d 8c24 c63d f72f ab3c
000000e0: 82c1 043b 93e7 1dbe 30be a53d a654 553e
000000f0: e395 29be fc05 223e 7ec7 05bd 998b 043d
00000100: 777c 23bd 0558 39bd e634 61be bb52 2d3d
00000110: 8aa8 d83d 0951 bc3d 8fa2 8cbe d0f6 1a3d
00000120: 96a0 263e 8d64 c4bc 355a 073e 0d8b 26be
00000130: 4fe9 8bbe 6fe0 003e eb8c 0cbe 431f 8abe
00000140: ea45 673c 56e2 12be 5db2 59be c88a 413e
00000150: 8042 763d bd54 63be 2505 74be 6c3b 11be
00000160: 2e56 42be 5e1c b0bd cd4c 3c3e 9d33 dabd
00000170: 5d9e 983d 1427 343e bbd1 19be 839b fa3d
-0.22961481 -0.14188671 0.13241056 -0.13417384 -0.14599767 -0.07236981 0.24615975 -0.021972643
-0.1134988 0.080601975 -0.06937378 0.22777893 0.086676255 0.12039556 0.23162663 0.1882015
-0.08823547 -0.14405492 0.084780805 -0.06806327 0.08152838 0.19989674 0.20060672 -0.07511276
-0.08955184 0.08842995 -0.028562471 0.20812957 0.13013157 -0.016845576 -0.15055813 -0.08286507
-0.08262821 -0.23038378 -0.0651037 -0.06317116 0.03519259 -0.066775374 0.15959856 -0.13315406
0.078494534 0.17599465 0.023116559 0.14143328 0.08839853 -0.059230104 0.16544594 0.1013613
0.08973681 -0.0012543923 0.14545272 0.057337236 -0.19811721 0.1142882 0.096749395 0.020896895
0.0020256941 -0.1542037 0.08092916 0.20833072 -0.16561083 0.15822595 -0.032660954 0.032359693
-0.03991362 -0.045249958 -0.21992835 0.042315226 0.10579021 0.09195144 -0.27467772 0.037833035
0.16272196 -0.023973728 0.13218005 -0.16263981 -0.27326438 0.12585615 -0.13725631 -0.26976976
0.01411579 -0.14344153 -0.21259446 0.18900597 0.060122013 -0.22200294 -0.23830087 -0.14182824
-0.18978187 -0.085991606 0.18388672 -0.10654376 0.074520804 0.17593032 -0.15021412 0.12236693

output.bias f4 [3]
00000000: 663f 0cbd 8767 8c3c d46b dbbd
-0.03424015 0.01713921 -0.10713926
